…
/localhost:8080/"},"id":"6FPeqiGs8wh8","executionInfo":{"status":"ok","timestamp":1653125533392,"user_tz":-420,"elapsed":4712,"user":{"displayName":"Nguyên Nguyễn Tiến","userId":"13414552079621358915"}},"outputId":"17d219f4-b1c9-42a6-d187-a064fa9bdc5d"},"execution_count":13,"outputs":[{"output_type":"stream","name":"stdout","text":["Model: \"sequential\"\n","_________________________________________________________________\n"," Layer (type)                Output Shape              Param #   \n","=================================================================\n"," conv2d (Conv2D)             (None, 150, 150, 64)      1792      \n","                                                                 \n"," conv2d_1 (Conv2D)           (None, 150, 150, 64)      36928     \n","                                                                 \n"," max_pooling2d (MaxPooling2D  (None, 75, 75, 64)       0         \n"," )                                                               \n","                                                                 \n"," conv2d_2 (Conv2D)           (None, 75, 75, 128)       73856     \n","                                                                 \n"," conv2d_3 (Conv2D)           (None, 75, 75, 128)       147584    \n","                                                                 \n"," max_pooling2d_1 (MaxPooling  (None, 37, 37, 128)      0         \n"," 2D)                                                             \n","                                                                 \n"," conv2d_4 (Conv2D)           (None, 37, 37, 256)       295168    \n","                                                                 \n"," conv2d_5 (Conv2D)           (None, 37, 37, 256)       590080    \n","                                                                 \n"," max_pooling2d_2 (MaxPooling  (None, 18, 18, 256)      0         \n"," 2D)                                                             \n","                                                                 \n"," conv2d_6 (Conv2D)           (None, 18, 18, 512)       1180160   \n","                                                                 \n"," conv2d_7 (Conv2D)           (None, 18, 18, 512)       2359808   \n","                                                                 \n"," max_pooling2d_3 (MaxPooling  (None, 9, 9, 512)        0         \n"," 2D)                                                             \n","                                                                 \n"," flatten (Flatten)           (None, 41472)             0         \n","                                                                 \n"," dense (Dense)               (None, 512)               21234176  \n","                                                                 \n"," dense_1 (Dense)             (None, 512)               262656    \n","                                                                 \n"," dropout (Dropout)           (None, 512)               0         \n","                                                                 \n"," dense_2 (Dense)             (None, 10)                5130      \n","                                                                 \n","=================================================================\n","Total params: 26,187,338\n","Trainable params: 26,187,338\n","Non-trainable params: 0\n","_________________________________________________________________\n"]}]},{"cell_type":"code","source":["opt = SGD(lr=0.01,momentum=0.9)\n","model.compile(optim
…
